Lee_DeepLearning/HW/HW01/models/model.ckpt (torch, 10548 bytes, 5 tensors)

layers.0.weight f4 [16, 117]
000000 ae eb 8b be e8 38 af 3d 52 e4 75 3d 00 55 45 bb
       -0.27328247 0.08555776 0.060032196 -0.0030110478
000010 40 58 9e 3d 31 ab 95 3c 3e a0 af bc a2 81 08 3d
       0.07731676 0.018270107 -0.021438714 0.033326752
000020 8e 7a 2a 3d eb 83 52 3c 9f 76 8e bc 02 d9 83 bc
       0.041620784 0.0128488345 -0.017390547 -0.016094688
000030 1c e0 84 bc d8 05 66 bc a8 d9 a5 3c 64 bc 55 3c
       -0.016220145 -0.014039479 0.020245388 0.013045404
000040 8e 6b 41 3d 1d c5 a8 3c 82 16 b4 3d 7c 05 86 3d
       0.047221713 0.020601803 0.087933555 0.06544015
000050 ae 1f 87 3d 88 1c 68 bd de d1 82 3d 49 73 93 3d
       0.06597839 -0.056667835 0.06387685 0.07199723
000060 49 e8 72 3d d3 a8 29 bd 96 c1 4d 3d 99 30 8e 3d
       0.059303556 -0.04142077 0.050233446 0.06942863
000070 bd 00 b3 bd 44 46 81 3d 32 74 5e 3d 1b cb a3 bd
       -0.08740375 0.0631223 0.05431003 -0.07997724
000080 6e 48 42 bc 55 28 e8 bc b3 55 69 bc e4 06 1d 3d
       -0.011858089 -0.028339544 -0.014241624 0.03833665
000090 ad 45 bb bc 4a 74 8f bd 0d b4 17 3d 9f b9 4a 3d
       -0.022860372 -0.07004602 0.037036944 0.04949343
0000a0 f3 b7 8a bc 40 72 b2 3d 7f 2b ec bc d4 68 8b bd
       -0.016933417 0.08713198 -0.028829334 -0.06807104
0000b0 0e 8b 90 bd 85 b3 a5 bd bc a1 78 3d 6a 49 00 bd
       -0.070577726 -0.08090881 0.060701117 -0.031320013
0000c0 d5 b8 07 3d 16 ac 83 bd 11 d5 83 bd 5f 7e 86 3d
       0.033135254 -0.06429307 -0.064371236 0.06567072
0000d0 46 1a ff 3c 99 cb 1d bd 91 23 40 3d 78 b2 55 bd
       0.031140458 -0.038524244 0.04690892 -0.052172154
0000e0 4a 56 0c bc 59 05 85 bd e3 db 41 3c 59 d1 75 bc
       -0.008565495 -0.064951606 0.01183221 -0.015003526
0000f0 b0 9d 91 bd ae e6 a3 bd 62 1e fd bc 20 17 30 3c
       -0.07110155 -0.08002983 -0.030898277 0.010747701
000100 eb b6 36 bd 58 f2 88 bd 92 27 3d 3d 0e e5 9b 3c
       -0.044608038 -0.066868484 0.046180315 0.01903012
000110 bd 1e aa 3d a3 01 92 3d af 3e 25 3d d2 ef 64 3d
       0.08306644 0.071292184 0.040342983 0.055892773
000120 29 2a 96 bd 6b e8 5c bd 37 93 4d 3d 06 81 ae 3d
       -0.0733226 -0.05393259 0.050189223 0.08520703
000130 4e 83 6a 3d 41 3e 2d bd 7f de 71 3d bd 2b c6 bd
       0.05725413 -0.042295698 0.05905008 -0.09676311
000140 a6 33 f9 3c 66 e4 a1 bc a7 d0 65 3d 7e 5e a5 3d
       0.030420136 -0.01976223 0.05610719 0.080746636
000150 e2 04 a7 3d 20 48 ad 3d 84 32 5a 3d fb 7f c5 bc
       0.08155228 0.084610224 0.05327083 -0.024108877
000160 c0 fe a0 bb 05 ea a8 bc 74 3b 4f 3d 0a fa 93 3a
       -0.004913181 -0.020619402 0.05059381 0.0011289727
000170 72 da 4b bd 67 74 45 bd 09 c2 8f bc 8c 48 ed 3c
       -0.049768873 -0.048206713 -0.017548578 0.028965257
000180 81 a5 8e 3d 34 a4 32 3c ba 4a 86 bd 5d 9d 41 3d
       0.06965161 0.010903407 -0.06557222 0.047269214
000190 ac 3e 48 bd 5a e2 4e 3d 6a 66 46 3d f0 8d c1 3b
       -0.048887894 0.050508834 0.048437513 0.005906813
0001a0 27 9f f1 bb ad f5 ab 3c f3 4f 0a 3d 94 91 91 3d
       -0.0073737088 0.02099117 0.03376765 0.07107845
0001b0 d2 e2 29 bd 55 e6 74 3d 54 76 7d 3a f6 e0 8d 3c
       -0.04147608 0.059789974 0.00096688163 0.017319184
0001c0 1c e9 8a bd 65 86 f8 3b 4c 19 a6 3d d2 fb 26 3d
       -0.06782743 0.0075843805 0.08110294 0.0407675
0001d0 78 cb 28 bb 5c d9 04 be 91 63 b3 3c 34 b3 90 3d
       -0.0025756042 -0.12973541 0.021898063 0.0706543
0001e0 ba 8b b1 3d 41 3d af bb 7b 5d 91 3c 3e 31 20 bc
       0.08669229 -0.005347878 0.01774477 -0.009777365
0001f0 2e 68 47 3d b9 75 2e bd a9 05 66 3d ed a8 86 3c
       0.048683338 -0.042592738 0.05615774 0.016437972
000200 ef a2 88 bb 9b 2f a7 3c e3 29 83 3d 82 9d ed bc
       -0.004169814 0.020408442 0.06404474 -0.02900577
000210 ea a4 b7 bd 68 25 3e bb 78 46 8f bd 72 0b 72 3d
       -0.08967002 -0.0029013995 -0.06995863 0.059092946
000220 d0 27 b8 3d 01 40 c9 3c 48 bf b8 3d 40 0e 73 3d
       0.08991969 0.024566652 0.09020859 0.05933976
000230 81 47 17 bd 63 72 99 3d bb eb a5 bd 8c 33 95 bd
       -0.036933426 0.07492521 -0.08101603 -0.072852224
000240 ef e1 47 bd 1a 9b 13 bd 50 f4 43 3c 5d 9a 0e 3d
       -0.04879945 -0.03603659 0.011960104 0.03481518
000250 5c e6 b7 3d d7 b0 c7 bb 65 81 4e bd e1 77 e2 3c
       0.089794844 -0.006094079 -0.05041637 0.027645053
000260 13 2e 10 3c 2c de 6a bd 97 1f 1b bc f6 ef 03 bd
       0.008800047 -0.057340786 -0.009467981 -0.032211266
000270 c3 b0 4e 3d 7d c6 d0 3d 33 ad c4 3d b4 07 c0 bc
       0.05046154 0.10194109 0.09603348 -0.023441173
000280 5b bf c4 bc 27 eb 90 3d c1 a3 0d 3a b5 cf 95 3c
       -0.024017027 0.07076102 0.00054031244 0.018287519
000290 ba 58 ad bd 56 fa 95 bc 1d df ea 3c a1 0e ad 3d
       -0.08464189 -0.018307846 0.028670842 0.08450056
0002a0 a5 07 ae bd b7 fb db bc 10 3b 09 3d c1 83 ee bc
       -0.08497552 -0.026853425 0.033503592 -0.02911556
0002b0 5c 69 01 bd 98 80 91 3c 3d 40 7e 3d 0a 42 d6 bb
       -0.03159462 0.017761514 0.06207298 -0.006538634
0002c0 5a f5 8d 3d 70 e4 31 3d af a6 c0 bc b5 59 31 bc
       0.06931563 0.043430746 -0.02351698 -0.0108246105
0002d0 ef 49 e2 3c 97 aa 17 3c 8a 2d 33 3d 82 b4 c4 bc
       0.027623145 0.00925698 0.0437446 -0.024011854
0002e0 30 b0 53 bd 5b 7a 53 3c d5 f5 e0 3d fc b4 5f bd
       -0.051681697 0.01290759 0.10984389 -0.05461596
0002f0 9c 9a bc bc 65 52 09 3d 2a 18 b5 ba 5f 14 17 3c
       -0.023022942 0.033525843 -0.0013816406 0.009221165
000300 d5 23 f8 bc 0a e9 ef bc 71 55 47 3c 89 83 cf 3c
       -0.030290524 -0.029285926 0.012166367 0.025331276
000310 c3 19 32 bd 2c 14 09 bd b6 5c 72 3d ed c7 7c 3d
       -0.0434816 -0.033466503 0.059170447 0.0617141
000320 2f c2 85 3d 33 0f 90 3d d3 dc 0e 3e cd 54 2f 3b
       0.06531178 0.07034149 0.13951425 0.0026753426
000330 3f 62 22 bb 3f 2e 16 bb ca 54 01 3e f5 60 ee bb
       -0.0024777798 -0.0022915748 0.1263 -0.007274742
000340 08 b1 19 3c 7c d6 9b 3d a8 84 e4 bd 83 ef 95 3d
       0.009380586 0.07609269 -0.11158115 0.07321074
000350 8b ca 60 bd 1e b4 8b bd de 05 40 bd d8 a9 b6 3d
       -0.05488066 -0.06821464 -0.046880595 0.08919114
000360 db 58 e7 3a 2d 02 a7 bd 28 ab 2e 3d e5 73 c5 3c
       0.0017650382 -0.08154712 0.042643696 0.024103114
000370 67 d2 8a 3d 85 14 d9 3d c6 e8 4d 3d 08 b4 c9 bc
       0.06778412 0.10599617 0.05027082 -0.024621978
000380 53 d8 e3 bc 6e 80 73 3d 62 55 39 3c 2b 67 87 bd
       -0.027813112 0.059448652 0.011311861 -0.066114746
000390 79 71 63 3d b0 18 72 3d a5 53 f6 3c 5a 8d 6b 3d
       0.055528138 0.059105575 0.030069182 0.05750785
0003a0 92 fd a6 bd 69 cf 81 3c 11 44 5c bd e6 56 a3 bd
       -0.081538334 0.015845971 -0.05377585 -0.07975559
0003b0 3b 2c 80 bc a0 8c ee bc 52 fc 38 3d b1 8d 92 3d
       -0.01564609 -0.02911979 0.045162506 0.07155932
0003c0 15 b4 8d 3d 08 2d e2 b8 67 dc 07 bd 22 1e 4e 3d
       0.069191135 -0.000107849075 -0.033169176 0.050321706
0003d0 9c d8 97 bd 50 d3 af 3b 06 d4 6b bd ca da ae 3b
       -0.07414362 0.0053657666 -0.05757525 0.0053361403
0003e0 97 9f 6c bd 09 07 34 bc b5 7c 20 bd b9 78 1b 3a
       -0.057769384 -0.010988005 -0.03918143 0.000593077
0003f0 36 63 6c 3b c6 7b 8f bd 87 45 3c 3d 5b 02 9a 3d
       0.0036069877 -0.0700603 0.045964744 0.075199805

layers.0.bias f4 [16]
000000 01 2d 9f 3c 29 81 81 3d cd 7a a5 bd 5c 0a 56 bd
       0.01943064 0.063234635 -0.08080063 -0.052255973
000010 17 85 69 bc 31 c6 b2 bd cb e9 ad bd c2 f9 8b bd
       -0.0142529225 -0.08729208 -0.08491858 -0.06834747
000020 da d0 6f 3d 88 ea 46 bc f5 dc a5 bd a3 37 6e bd
       0.058548786 -0.012140878 -0.08098785 -0.058158528
000030 59 0b 3c 3d a5 d0 51 3d 96 c2 80 3d 73 1e ec bc
       0.04590926 0.05122437 0.06287114 -0.028823113

layers.2.weight f4 [8, 16]
000000 49 ac 4d 3d ec b8 24 3d e5 11 a3 bd e5 18 54 bd
       0.050213132 0.040215418 -0.079623975 -0.051781554
000010 c7 1f 50 3d ba fc 3a 3e db df a9 bd 38 9b 32 3e
       0.050811555 0.1826047 -0.0829465 0.17442024
000020 27 62 8d 3d a4 b5 44 be c7 3d e3 3d 57 b5 5e be
       0.06903487 -0.19209915 0.110957675 -0.21748863
000030 a1 e6 14 be 78 ca d6 bc 66 3b e0 bd ed 14 fc 3d
       -0.14541103 -0.026219591 -0.10948829 0.12308679
000040 c6 49 2d bd c1 b1 90 3c 10 76 48 3e 20 0b 6f 3e
       -0.042306684 0.017662885 0.19576287 0.23344088
000050 15 64 6e 3d 6a dd 37 3e 77 bd 29 3e 84 4d 31 be
       0.058200914 0.17955557 0.16576181 -0.17314726
000060 cd 9c 8b bd d0 26 ea bd 1b 12 0b 3e dc 84 b2 bd
       -0.06817017 -0.11433184 0.13581125 -0.08716747
000070 e5 c0 b2 bb 0f 9b ad 3c 07 d4 58 bd f2 4a 1b 3e
       -0.0054551237 0.021192102 -0.05293658 0.15165308
000080 20 19 3f 3e d4 a0 08 bd 8f f8 59 3d 1b ec 14 be
       0.18661928 -0.033356503 0.05321556 -0.14543192
000090 a7 11 1d 3d 8a 66 01 3e 49 ed 56 be 45 33 fe 3d
       0.038346913 0.12636772 -0.20988955 0.12412123
0000a0 03 92 e2 3d fd e2 6b 3d 7c 10 74 3e e2 d0 17 3e
       0.11063006 0.05758952 0.23834413 0.14825776
0000b0 1b a7 a2 bc be ad 65 be 9c 5f 20 be e9 50 63 3e
       -0.019855073 -0.22429559 -0.15661472 0.22198834
0000c0 d3 e5 0f 3e 99 39 5c 3e ef 92 c0 3d a8 3a 26 be
       0.14052515 0.21506347 0.09403025 -0.16233313
0000d0 4a 32 3d 3e 50 94 10 3d 9a a1 9d bd 0b 58 3a 3e
       0.18476215 0.03529769 -0.07696839 0.18197648
0000e0 ce e5 56 3e eb 4a e1 3c 22 f3 f3 3d 8c 41 0c be
       0.20986101 0.027501544 0.11911608 -0.13696879
0000f0 81 ee 9c bd a0 6f 6d 3e 37 9a 8d bd 96 42 9f 3e
       -0.076626785 0.23187113 -0.0691418 0.3110549
000100 94 f1 5e 3d aa 63 55 bc 63 a7 b7 3b 3b 83 5e 3e
       0.054429606 -0.01302425 0.005604671 0.21729748
000110 ab 45 48 be 47 53 03 be 66 44 87 3d 83 a3 b9 bd
       -0.19557826 -0.12824737 0.06604843 -0.090643905
000120 86 60 d7 bd a2 76 10 3b 19 fc 30 be 7a 01 84 3d
       -0.10516457 0.0022043367 -0.17283668 0.06445594
000130 9f 1b 1d 3d f8 35 56 bd 53 07 09 be 38 a4 4e be
       0.03835642 -0.052297562 -0.133817 -0.20179832
000140 25 92 5d be ca fb ca 3d e2 e5 01 3e 0d 90 3d 3e
       -0.21637781 0.09911306 0.1268535 0.18511982
000150 c2 db 22 3e e6 97 e3 3d 3b 69 f6 3d 60 d8 3b bd
       0.15904143 0.11112957 0.1203179 -0.04586065
000160 b1 0b 11 be fc 93 1b be 29 43 4f 3e ff 8f 11 3e
       -0.14164616 -0.1519317 0.20240463 0.14215086
000170 94 cc 13 bd e7 2c e8 39 68 8a 16 be a6 f2 89 3d
       -0.036083773 0.00044283943 -0.14701235 0.06735735
000180 2c 1b 41 3e bd 42 3e be a0 11 3d 3e a8 e5 4d be
       0.18858021 -0.18580146 0.18463755 -0.20107138
000190 7a fd d6 3d 5f 4e 0a 3e 60 c6 23 be 98 e1 89 be
       0.104975656 0.13506459 -0.15993643 -0.26929927
0001a0 0d b9 3f bb c2 d0 9f bd a0 49 1b bd 7f c6 94 be
       -0.0029254586 -0.07803489 -0.03791201 -0.2905769
0001b0 40 e1 79 3e 9b 97 40 3e 9c df 65 3c be 9c 79 bd
       0.24402332 0.18807833 0.014030363 -0.060940497
0001c0 06 96 75 3e 6d ff f1 3d aa d8 d9 bd 1d 29 da bd
       0.2398301 0.11816297 -0.106370285 -0.10652373
0001d0 6d ef e7 bd 99 82 36 bd c5 2c 36 be 69 f3 4c 3e
       -0.11324964 -0.04455814 -0.17790516 0.20014729
0001e0 f2 5f 94 bd 8d 03 0f 3e 3e 3b 04 3e 22 7b 00 3e
       -0.072448626 0.13966198 0.12913224 0.12546971
0001f0 5d 07 0f be 9a 4c 3e 3e b6 ae 8a 3e aa 19 91 3c
       -0.13967653 0.18583909 0.2708642 0.017712433

layers.2.bias f4 [8]
000000 77 6e 75 3e 9d ab de bd 3b 12 5a 3e cf 9e 68 3e
       0.2396792 -0.108725764 0.21296017 0.2271683
000010 fa 87 54 3d 89 e6 45 be a7 f1 21 3e 65 7c 11 3e
       0.05188749 -0.19326223 0.1581484 0.14207609

layers.4.weight f4 [1, 8]
000000 14 c2 45 3e 8f 31 ee bd b0 cd 40 3e cd 62 a9 3e
       0.19312316 -0.11630546 0.18828464 0.33083192
000010 de 09 21 be 2c 3d 91 3d e8 e7 14 be e7 ab 53 3e
       -0.1572642 0.07091746 -0.1454159 0.20671044
